…
7500/7500 [==============================] - 25s 3ms/step - loss: 0.6902 - accuracy: 0.5237
Epoch 10/10










7500/7500 [==============================] - 26s 3ms/step - loss: 0.6893 - accuracy: 0.5251
OK
Model: "model"
__________________________________________________________________________________________________
 Layer (type)                   Output Shape         Param #     Connected to
==================================================================================================
 flatten_input (InputLayer)     [(None, 28, 28)]     0           []
 flatten_1_input (InputLayer)   [(None, 28, 28)]     0           []
 flatten (Flatten)              (None, 784)          0           ['flatten_input[0][0]']
 flatten_1 (Flatten)            (None, 784)          0           ['flatten_1_input[0][0]']
 dense (Dense)                  (None, 128)          100480      ['flatten[0][0]']
 dense_1 (Dense)                (None, 128)          100480      ['flatten_1[0][0]']
 concatenate (Concatenate)      (None, 256)          0           ['dense[0][0]',
                                                                  'dense_1[0][0]']
 dense_2 (Dense)                (None, 1)            257         ['concatenate[0][0]']
==================================================================================================
Total params: 201,217
Trainable params: 201,217
Non-trainable params: 0
__________________________________________________________________________________________________